datasets/census/model.pt (torch, 10269 bytes, 9 tensors)

weight f4 [55, 13]
-1.8650198 0.0031940094 -0.018305259 -2.59294 -0.19510576 0.044666015 0.4001004 0.04866722
-0.26188576 -3.6326299 -0.48096022 -1.171754 -0.08128418 2.4375622 -0.016804157 0.05076632
0.8333127 0.80041337 -0.056204945 -0.81282806 -0.05529258 -0.46430787 -3.1048217 1.6530491
3.1865466 0.022517096 -1.6372753 0.062294442 0.18764895 1.9658767 -0.3163783 -0.0732643
-0.1000759 0.0039010202 -0.09576489 6.2523704 0.7979258 1.8146532 0.10515914 -0.66864365
0.19228807 -0.028061619 -1.7654124 0.05702934 0.81913817 -0.2080719 0.15019229 0.13219117
-3.1911323 0.25497854 -1.5641705 -0.54813206 3.8049335 0.10482671 -0.0516307 0.20571975
1.0162858 -0.038062163 -0.35346338 -0.09687625 -0.3114713 -4.7782364 0.49781376 0.5819714
0.058194432 1.4300092 -0.016871026 -0.097876854 2.5093865 -0.19146617 -0.19892971 -0.18989629
-0.09187453 0.37606904 2.7715666 0.3311233 1.8904462 0.07003902 1.7513144 -0.0683848
-0.0024056903 2.59427 0.017931536 0.04503818 0.0071511073 0.06774092 0.32217005 4.3091626
0.56960046 1.0750719 0.07491985 -1.2453737 -0.012240173 -0.12199324 -2.7547016 -0.21351689
0.019739268 0.6316769 -0.017828535 -0.3982741 -2.6158679 -0.8529127 -1.3870811 -0.16433166
-0.9395499 0.18330084 -0.10747826 -2.380806 -0.76502025 -0.34602883 0.2928407 -0.26776588
0.41155934 -0.8566787 -1.5058701 -0.57856643 0.08136323 1.9056041 -0.003451543 0.009951658
2.8764899 0.24648973 0.017396115 -0.6713058 -0.05495137 0.4199271 2.6546917 0.7624999
1.3395224 1.0433258e-05 -1.2533695 -0.15303643 0.04140902 -2.522009 -0.15665518 -0.20598611
-0.33573645 -0.094418176 0.26856273 -4.6772594 -0.38614553 -0.33254927 0.022141427 0.38536844
-0.33550936 0.017933939 2.1187248 -0.4807991 -0.38721406 0.36043194 0.14701931 -0.23854552
3.8705318 -0.07613389 0.4528439 0.08658901 -1.9247022 0.08454544 0.117822185 -2.1478708
0.3037078 0.4784064 -0.31446445 0.20785488 -0.3732655 -2.6630142 0.49620965 -1.0154611
-0.30148983 -0.7939406 -0.013653164 0.04467105 -2.8955653 0.46968865 -0.03188654 0.6931651
0.027551815 -0.92266923 -2.2238483 -0.21133277 -1.7935625 0.07847698 0.7949424 -0.01752958
-0.06726477 2.5573473 -0.3742353 -0.29478884 -0.30272362 -0.06326286 0.6982026 2.8252695
-0.17023961 2.0022125 0.17875303 0.2089791 0.057877604 -0.072027974 -2.8270922 0.38349903
0.049965534 0.5329446 -0.11361398 -0.210429 -3.2330153 -1.0272317 -2.5558014 -0.044239942
1.154886 -0.03378289 -0.00012816279 3.2467983 -0.23488796 0.05259371 -0.6119457 0.048052616
0.6215172 1.2137336 0.80871373 2.080413 -0.032880038 2.550721 -0.12996781 0.07070727
2.277985 1.1493219 0.14935508 -0.61544603 0.08577539 -0.4024558 -0.99931794 1.5901238
1.5407776 0.04014738 -1.6692106 -0.063983396 -0.0033588463 -2.593387 -0.20541781 0.055956777
1.4415567 0.092051394 -0.34627977 -0.7672599 -0.22917211 -2.7097638 -0.040714 -1.5867164
-0.046485003 0.11600817 -1.9073932 0.24991961 0.5228976 0.42103943 0.23181474 -0.28372005
00000000: f8b8 eebf 9652 513b e9f4 95bc bbf2 25c0
00000010: cec9 47be b6f3 363d f6d9 cc3e 4757 473d
00000020: e415 86be 027d 68c0 6b40 f6be 09fc 95bf
00000030: 5278 a6bd 0501 1c40 dfa8 89bc 58f0 4f3d
00000040: fb53 553f e4e7 4c3f 2837 66bd 8015 50bf
00000050: 797a 62bd c3b9 edbe 66b5 46c0 1d97 d33f
00000060: 61f0 4b40 c675 b83c 3d92 d1bf 7528 7f3d
00000070: 0c27 403e d9a1 fb3f 56fc a1be 980b 96bd
00000080: 98f4 ccbd 42a8 7f3b 6220 c4bd 6b13 c840
00000090: dd44 4c3f 8e46 e83f ad5d d73d 3b2c 2bbf
000000a0: 2ae7 443e 7be1 e5bc 09f9 e1bf 9997 693d
000000b0: 0ab3 513f cd10 55be 02cc 193e 1f5d 073e
000000c0: 833b 4cc0 8c8c 823e bd36 c8bf 6252 0cbf
000000d0: 0884 7340 63af d63d b67a 53bd 33a8 523e
000000e0: a715 823f 12e7 1bbd 27f9 b4be 0e67 c6bd
000000f0: 2b79 9fbe 50e7 98c0 72e1 fe3e 14fc 143f
00000100: 495d 6e3d 8b0a b73f 1b35 8abc a973 c8bd
00000110: ca99 2040 b50f 44be 3bb4 4bbe 2c74 42be
00000120: b728 bcbd 1f8c c03e 5961 3140 fe88 a93e
00000130: 24fa f13f 9e70 8f3d 122b e03f 540d 8cbd
00000140: c9a8 1dbb 8508 2640 28e5 923c f479 383d
00000150: d653 ea3b c0bb 8a3d 79f3 a43e a9e4 8940
00000160: 56d1 113f f59b 893f 946f 993d 6868 9fbf
00000170: 028b 48bc 98d7 f9bd 084d 30c0 2ca4 5abe
00000180: 3fb4 a13c 94b5 213f 260d 92bc 95ea cbbe
00000190: 616a 27c0 7d58 5abf e08b b1bf 8f46 28be
000001a0: 5886 70bf 37b3 3b3e 901d dcbd 205f 18c0
000001b0: 5ed8 43bf b12a b1be 37ef 953e 9c18 89be
000001c0: e8b7 d23e 4c4f 5bbf 5ac0 c0bf ee1c 14bf
000001d0: c4a1 a63d d6ea f33f 4833 62bb 470c 233c
000001e0: 6918 3840 ce67 7c3e 4c82 8e3c b2da 2bbf
000001f0: b014 61bd af00 d73e 78e6 2940 3233 433f
00000200: 7875 ab3f 800a 2f37 696e a0bf 95b5 1cbe
00000210: 819c 293d 9868 21c0 376a 20be 06ee 52be
00000220: a6e5 abbe 515e c1bd 0e81 893e 1cac 95c0
00000230: deb4 c5be e643 aabe f061 b53c 034f c53e
00000240: e2c7 abbe 32ea 923c 3099 0740 4d2b f6be
00000250: ec40 c6be 898a b83e 3b8c 163e 4745 74be
00000260: cbb6 7740 16ec 9bbd 28db e73e 9455 b13d
00000270: a45c f6bf 2926 ad3d c24c f13d b776 09c0
00000280: 977f 9b3e aff1 f43e 7c01 a1be e9d7 543e
00000290: a81c bfbe d36e 2ac0 310f fe3e a1fa 81bf
000002a0: e05c 9abe b13f 4bbf 85b1 5fbc fef8 363d
000002b0: f150 39c0 087b f03e 769b 02bd 4573 313f
000002c0: 58b4 e13c 0d34 6cbf 8853 0ec0 9e67 58be
000002d0: 7593 e5bf 8ab8 a03d 5881 4b3f 329a 8fbc
000002e0: 1dc2 89bd 94ab 2340 c59b bfbe 90ee 96be
000002f0: 97fe 9abe f58f 81bd 68bd 323f 37d1 3440
00000300: 4b53 2ebe 4024 0040 090b 373e 9efe 553e
00000310: 1111 6d3d 6783 93bd 14ef 34c0 fc59 c43e
00000320: a9a8 4c3d 0f6f 083f 72ae e8bd b37a 57be
00000330: b9e9 4ec0 547c 83bf 4092 23c0 f134 35bd
00000340: 4ed3 933f ed5f 0abd 7063 06b9 8bcb 4f40
00000350: 7886 70be 816c 573d 79a8 1cbf d2d2 443d
00000360: c01b 1f3f 9f5b 9b3f dd07 4f3f 7d25 0540
00000370: 38ad 06bd 033f 2340 4816 05be f9ce 903d
00000380: 82ca 1140 fb1c 933f 8af0 183e df8d 1dbf
00000390: 02ab af3d b00e cebe 4dd3 7fbf 2d89 cb3f
000003a0: 3338 c53f 9471 243d b1a8 d5bf ba09 83bd
000003b0: 1720 5cbb 0dfa 25c0 0c59 52be ef32 653d
000003c0: ee84 b83f 7185 bc3d 954b b1be 256b 44bf
000003d0: 18ac 6abe c56c 2dc0 b9c3 26bd 8619 cbbf
000003e0: 0f67 3ebd b195 ed3d 7625 f4bf edea 7f3e
000003f0: 9edc 053f 7b92 d73e d860 6d3e c143 91be

bias f4 [55]
0.09263028 0.004612732 -0.009712955 -0.21985412 -0.10033695 -0.2064522 0.17657706 0.26892638
-0.032483537 0.023843726 0.10047315 -0.16972551 -0.064260565 -0.095666535 -0.050501786 0.12470203
0.21735203 0.1305069 0.22557414 -0.13892148 0.10965897 0.1730945 0.17148337 -0.2270122
0.20639765 0.11566009 0.24566299 0.07884452 0.026196022 -0.0030262086 -0.10765637 0.0036178066
-0.16616237 -0.18164548 -0.071802445 -0.21140844 -0.2559491 -0.23207146 0.11216217 0.20794052
-0.26102024 -0.112845354 -0.15382768 0.05121591 0.26751608 0.037013132 -0.22226703 0.078083105
0.1864075 -0.25777936 0.13066527 0.24413778 0.0070083872 -0.13759033 -0.054742374
00000000: f2b4 bd3d 6726 973b 1623 1fbc 7021 61be
00000010: 757d cdbd 3568 53be 9ed0 343e b8b0 893e
00000020: 750d 05bd eb53 c33c dec4 cd3d 86cc 2dbe
00000030: 0b9b 83bd d1ec c3bd f6da 4ebd c763 ff3d
00000040: 8891 5e3e 9aa3 053e e8fc 663e 6f41 0ebe
00000050: e294 e03d af3f 313e 5699 2f3e e375 68be
00000060: e859 533e 33df ec3d 148f 7b3e 3c79 a13d
00000070: 0a99 d63c 5b53 46bb f17a dcbd b918 6d3b
00000080: 7826 2abe 4601 3abe 290d 93bd 747b 58be
00000090: c30b 83be 24a4 6dbe 48b5 e53d 5cee 543e
000000a0: 72a4 85be 771b e7bd 0185 1dbe c6c7 513d
000000b0: def7 883e 159b 173d f899 63be 09ea 9f3d
000000c0: 9ce1 3e3e a8fb 83be 1ecd 053e 41ff 793e
000000d0: 9da6 e53b 7be4 0cbe 8a39 60bd

weight f4 [55]
1.1584579 1.7685874 1.1893148 0.6973242 1.8179562 1.1091089 1.4285548 0.8291229
0.724618 1.1712166 1.8435991 0.89739335 1.3115112 1.3273907 1.0322162 1.1449537
1.2120929 1.5010451 1.1423762 1.2711815 1.1395391 0.7345164 1.539838 1.6103745
1.0836998 1.7593635 0.8969961 1.5177957 1.4848127 1.7971162 0.91270155 1.1185763
1.1284355 1.2043626 1.960134 1.0162458 1.4044837 1.1295935 1.2487447 0.55992734
1.6587085 0.59149176 1.1898345 1.1405405 1.0626068 1.2707827 1.3128315 1.6133156
0.69786 0.64408946 1.3416152 1.0366179 0.80192053 1.9301556 0.20967218
00000000: 5948 943f 1261 e23f 783b 983f d783 323f
00000010: cab2 e83f 48f7 8d3f e2da b63f 6641 543f
00000020: 9180 393f 6dea 953f 0efb eb3f 92bb 653f
00000030: 99df a73f f0e7 a93f a91f 843f d88d 923f
00000040: dc25 9b3f 3f22 c03f 6239 923f 13b6 a23f
00000050: 6bdc 913f 4409 3c3f 6919 c53f c020 ce3f
00000060: adb6 8a3f d332 e13f 89a1 653f 2147 c23f
00000070: 580e be3f e707 e63f cfa6 693f 822d 8f3f
00000080: 9370 903f 8e28 9a3f ace5 fa3f 5814 823f
00000090: 1fc6 b33f 8596 903f ded6 9f3f 6657 0f3f
000000a0: 8f50 d43f 016c 173f 7f4c 983f 3bfd 913f
000000b0: 8003 883f 02a9 a23f dd0a a83f 2081 ce3f
000000c0: f4a6 323f 0ce3 243f 0cba ab3f e5af 843f
000000d0: aa4a 4d3f 570f f73f 4eb4 563e

bias f4 [55]
0.4333926 0.4492194 -0.6676158 -0.0049009225 0.67494196 -0.07360591 -0.3221601 0.38637075
0.31188497 -0.5056895 0.40147936 -0.12573063 0.03307104 0.46312037 -0.15687017 0.410423
-0.15849096 -0.12562639 0.30364192 -0.34968892 -0.2557768 0.26434493 -0.6178902 -0.09603931
0.07538082 -0.06577804 0.114384726 -0.59046507 -0.111556344 0.20927168 0.32891864 0.48160952
-0.21992908 0.44116306 -0.39429224 -0.5061926 -0.23138194 -0.3700531 -0.24980424 0.55902153
-0.65267485 0.25923884 -0.34727195 0.5001432 -0.20904832 -0.27246982 -0.2219541 0.49033663
0.15721998 -0.50243497 -0.37538004 0.5530213 0.043040946 0.45112675 -0.07219833
00000000: a3e5 dd3e 1600 e63e dee8 2abf eb97 a0bb
00000010: ffc8 2c3f b2be 96bd 2bf2 a4be 63d2 c53e
00000020: 63af 9f3e de74 01bf b48e cd3e 88bf 00be
00000030: 8075 073d 1d1e ed3e 93a2 20be f722 d23e
00000040: 744b 22be 34a4 00be f476 9b3e 6d0a b3be
00000050: 2df5 82be 3858 873e 0d2e 1ebf 42b0 c4bd
00000060: 4261 9a3d a3b6 86bd 8a42 ea3d b828 17bf
00000070: a777 e4bd 514b 563e 0668 a83e 8695 f63e
00000080: 1735 61be 20e0 e13e ace0 c9be d795 01bf
00000090: 63ef 6cbe 9a77 bdbe afcc 7fbe 091c 0f3f
000000a0: b315 27bf f4ba 843e a1cd b1be 6209 003f
000000b0: c310 56be 2a81 8bbe f047 63be 670d fb3e
000000c0: 46fe 203e 949f 00bf d031 c0be ce92 0d3f
000000d0: b44b 303d 16fa e63e b8dc 93bd

running_mean f4 [55]
-3.2005649 -28.2294 -7.575538 15.356674 19.545593 -18.255243 27.931349 -16.317524
-30.892374 -5.9203906 -41.177006 -37.017433 5.715656 26.46368 -11.650265 28.328913
-13.662355 21.25022 52.51912 49.080395 -24.951973 -16.339815 17.562862 -5.8567586
-3.8186834 -22.76031 -44.80105 0.91551954 1.6076901 15.938895 -23.143463 30.946743
-17.159723 23.160028 -11.390764 0.5003993 -27.327486 -19.749119 -36.440952 -25.85441
16.133345 43.951378 -17.986046 -3.7883995 13.438542 -31.270836 10.5334215 7.12753
97.48324 -2.8583462 14.531402 31.997883 20.397411 -53.56018 -52.0096
00000000: 0ed6 4cc0 d0d5 e1c1 cf6a f2c0 f0b4 7541
00000010: 605d 9c41 bd0a 92c1 6773 df41 4a8a 82c1
00000020: 9523 f7c1 d773 bdc0 41b5 24c2 da11 14c2
00000030: a7e6 b640 9eb5 d341 7c67 3ac1 9da1 e241
00000040: 0299 5ac1 7300 aa41 9413 5242 5352 4442
00000050: a49d c7c1 f1b7 82c1 be80 8c41 916a bbc0
00000060: 4f65 74c0 1d15 b6c1 4634 33c2 7d5f 6a3f
00000070: cac8 cd3f b705 7f41 d025 b9c1 ee92 f741
00000080: 1d47 89c1 bd47 b941 9240 36c1 2b1a 003f
00000090: b19e dac1 32fe 9dc1 89c3 11c2 d5d5 cec1
000000a0: 1711 8141 36ce 2f42 6ce3 8fc1 2375 72c0
000000b0: 4504 5741 ac2a fac1 e588 2841 ba14 e440
000000c0: 6bf7 c242 25ef 36c0 9f80 6841 aafb ff41
000000d0: e62d a341 a03d 56c2 d509 50c2

running_var f4 [55]
170.4772 324.40723 205.25774 613.3187 294.19733 128.78773 104.10318 296.516
296.12067 307.34094 163.33786 283.97763 274.95477 467.26584 256.0126 256.34335
319.6669 392.0187 822.00836 334.31482 321.51566 346.56635 175.93213 153.17351
154.4038 286.50018 378.72202 173.85818 134.33449 130.97702 156.45859 394.15958
122.466965 172.47731 124.87075 136.13377 623.14984 181.43759 515.43134 689.24274
237.89273 241.63048 537.8746 349.80988 144.05278 97.72996 167.75156 128.95049
498.49634 202.4876 109.56582 643.63684 294.88455 199.53236 272.04474
00000000: 2a7a 2a43 2034 a243 fb41 4d43 6654 1944
00000010: 4219 9343 a9c9 0043 d434 d042 0c42 9443
00000020: 720f 9443 a4ab 9943 7e56 2343 23fd 8d43
00000030: 367a 8943 07a2 e943 9d01 8043 f32b 8043
00000040: 5dd5 9f43 6502 c443 8980 4d44 4c28 a743
00000050: 01c2 a043 7e48 ad43 a0ee 2f43 6b2c 1943
00000060: 5f67 1a43 0640 8f43 6b5c bd43 b2db 2d43
00000070: a155 0643 1efa 0243 6675 1c43 6d14 c543
00000080: 16ef f442 317a 2c43 d3bd f942 3f22 0843
00000090: 97c9 1b44 0670 3543 9bdb 0044 894f 2c44
000000a0: 8ae4 6d43 67a1 7143 f977 0644 aae7 ae43
000000b0: 830d 1043 bd75 c342 66c0 2743 53f3 0043
000000c0: 883f f943 d37c 4a43 b321 db42 c2e8 2044
000000d0: 3971 9343 4988 4743 ba05 8843

weight f4 [8, 55]
0.44306365 -0.4734363 -0.83570623 0.36093685 0.1918724 -0.23126696 -0.30262372 0.5757708
0.1760127 -0.411766 0.21074897 -0.17086884 0.13393235 0.44979933 -0.42209262 0.7650022
-0.45185968 -0.34697628 0.5512639 0.31098533 -0.30925047 -0.065413184 -0.54692924 -0.4806527
0.10554951 0.36143088 -0.32099614 -0.71576136 0.49830282 0.66899145 0.381601 0.44865453
-0.06928253 -0.15246958 0.15590587 -0.37846616 -0.5085174 -0.4692596 -0.3497269 -0.07449493
-0.8417502 -0.19792123 -0.56958175 0.34458876 -0.07851119 -0.7023435 -0.34028447 0.39357772
0.30043125 -0.3994845 -0.19751088 0.43776873 0.22485973 0.2332696 -0.17968203 -0.6118117
-0.56668323 0.3881046 -0.12960047 -0.51987946 0.6760084 0.9316647 -0.28249645 0.39135173
0.5939394 -0.79639214 0.1058067 -0.79527855 -1.2321352 0.83166665 -0.40522367 0.58623594
-0.6806412 -0.47882935 -0.61630476 -0.4246953 0.02716418 1.0781622 -0.39590073 0.58614665
1.0164266 -0.04057335 0.75024706 0.37345368 -0.08181663 0.102548644 -0.668203 0.7759785
0.09057574 0.58015 0.7931734 0.5022065 0.09674422 0.96919656 0.22039041 0.86536664
-0.31281927 0.10890902 -1.3053281 -0.28793114 -0.184595 -0.18979877 -0.47907358 0.19562843
0.41921875 1.2187202 -0.47820812 0.615048 -0.5785609 0.06493823 0.058583565 -0.3080055
0.36916813 0.66041565 -0.62188333 -0.4193709 -0.08966883 -0.19299157 -0.6617713 0.52735585
-0.41978294 -0.3394398 0.83466697 -0.7314818 -0.38710555 -0.24184723 0.5495481 0.40556017
-0.3072927 0.981023 0.9357559 0.08250454 0.3524658 0.195055 0.035726685 0.3722838
0.2515118 0.38918167 -0.056082543 0.05102736 -0.15672015 -0.8736842 0.32766286 -1.0735097
0.14013998 -0.024581008 0.6219397 0.4920231 0.45431864 -1.1803602 0.2530161 -0.52748823
0.6023021 -0.7793867 -0.088914305 0.025467588 0.28107408 -0.065501794 -0.587065 0.558911
0.21266593 -1.1603721 -0.41472584 -0.18148154 0.32690528 -0.026957288 -0.86531657 0.17294654
-0.14746198 -0.72759527 0.08463921 0.5350732 0.080616444 0.16831815 0.02908975 -0.9539947
0.53565836 -0.3063821 0.23697025 0.00022017589 -0.026269006 -0.18338771 -0.5044299 0.38875583
0.24373287 -0.29014704 -0.62927514 0.5206608 -0.25740725 0.039941795 0.476949 -0.3700308
0.5284447 0.3083948 0.4518602 0.20078658 0.19924925 0.14045414 -0.09165807 0.50464636
0.2998977 -0.45523134 -0.048219677 -0.351742 -0.24381286 0.59663534 -0.042882036 -0.26426926
-0.0868467 0.04939719 0.024098009 -0.24946031 -0.72377163 0.31312218 0.20918706 0.46871227
0.2205694 0.47025457 -1.2499479 -0.024678953 0.67917955 -0.5187173 0.6307597 0.11312587
-1.1088452 -0.110608436 -0.37300202 0.2962852 0.24501505 -0.7183479 0.7771654 0.055802587
0.20758739 -0.18392017 0.043979492 -0.3489859 0.04309282 -0.82074755 0.2606499 0.16179541
-2.5566376e-05 -0.08650055 0.546038 1.2403809 0.6610304 0.79084456 0.33542982 0.7845694
-1.0256653 1.0544345 0.57624906 0.11544349 0.53436095 -0.7102978 -1.6045647 -0.2118844
00000000: 3dd9 e23e 3e66 f2be d8f0 55bf b7cc b83e
00000010: 337a 443e 3fd1 6cbe 7ff1 9abe b765 133f
00000020: ac3c 343e fed2 d2be 94ce 573e 3ef8 2ebe
00000030: 9025 093e 194c e63e 861c d8be 2fd7 433f
00000040: 275a e7be e0a6 b1be a21f 0d3f 7839 9f3e
00000050: 1456 9ebe 59f7 85bd 8e03 0cbf 1c18 f6be
00000060: 572a d83d 780d b93e 9b59 a4be 233c 37bf
00000070: 8c21 ff3e 0643 2b3f 3561 c33e 0cb6 e53e
00000080: 00e4 8dbd fc20 1cbe caa5 1f3e 51c6 c1be
00000090: 322e 02bf cb42 f0be 670f b3be cc90 98bd
000000a0: f17c 57bf ddab 4abe 1cd0 11bf f06d b03e
000000b0: 7aca a0bd c9cc 33bf c439 aebe 0583 c93e
000000c0: 20d2 993e 3b89 ccbe 4b40 4abe 3923 e03e
000000d0: a141 663e 3ade 6e3e 91fe 37be b19f 1cbf
000000e0: 2712 11bf a5b5 c63e fcb5 04be d216 05bf
000000f0: e30e 2d3f 9481 6e3f 60a3 90be 415f c83e
00000100: 6a0c 183f 5be0 4bbf 2fb1 d83d 6097 4bbf
00000110: 9bb6 9dbf 1be8 543f 7a79 cfbe 8f13 163f
00000120: 803e 2ebf 1f29 f5be 26c6 1dbf aa71 d9be
00000130: 6a87 de3c 3801 8a3f 80b3 cabe b50d 163f
00000140: 441a 823f 3e30 26bd 3110 403f 5235 bf3e
00000150: 7a8f a7bd 0605 d23d 5a0f 2bbf 87a6 463f
00000160: c67f b93d b684 143f 690d 4b3f 9b90 003f
00000170: d521 c63d 441d 783f 06ae 613e ab88 5d3f
00000180: d929 a0be b10b df3d fe14 a7bf b66b 93be
00000190: 7906 3dbe 9c5a 42be 2249 f5be d252 483e
000001a0: d7a3 d63e 06ff 9b3f b2d7 f4be c973 1d3f
000001b0: 911c 14bf 56fe 843d 52f5 6f3d e6b2 9dbe
000001c0: 9b03 bd3e 0011 293f bf33 1fbf c8b7 d6be
000001d0: 4ba4 b7bd 959f 45be d869 29bf cb00 073f
000001e0: caed d6be 0ecb adbe bcac 553f 6442 3bbf
000001f0: b332 c6be cda6 77be 2faf 0c3f 95a5 cf3e
00000200: 7855 9dbe 5324 7b3f b38d 6f3f 24f8 a83d
00000210: 6676 b43e 7fbc 473e 2556 123d fb9b be3e
00000220: 28c6 803e d242 c73e cfb6 65bd 1102 513d
00000230: 3f7b 20be c5a9 5fbf 6dc3 a73e c468 89bf
00000240: db80 0f3e 1c5e c9bc 7137 1f3f 74ea fb3e
00000250: 749c e83e 0b16 97bf 548b 813e 7809 07bf
00000260: 7830 1a3f e385 47bf b418 b6bd 67a1 d03c
00000270: f1e8 8f3e ce25 86bd e449 16bf cb14 0f3f
00000280: 19c5 593e 1387 94bf f256 d4be 4cd6 39be
00000290: 2160 a73e 88d5 dcbc 6385 5dbf e618 313e
000002a0: 4600 17be af43 3abf 5257 ad3d 8ffa 083f
000002b0: 3c1a a53d 985b 2c3e a14d ee3c ff38 74bf
000002c0: e820 093f 1dde 9cbe 54a8 723e 04df 6639
000002d0: 1932 d7bc fdc9 3bbe 5122 01bf 010b c73e
000002e0: 1c95 793e 278e 94be 2d18 21bf 074a 053f
000002f0: e2ca 83be 029a 233d a932 f43e ad74 bdbe
00000300: 2748 073f ece5 9d3e 385a e73e ff9a 4d3e
00000310: ff07 4c3e 36d3 0f3e 3ab7 bbbd 8130 013f
00000320: 318c 993e 1514 e9be ff81 45bd 8717 b4be
00000330: 14aa 79be 18bd 183f 13a5 2fbd 4d4e 87be
00000340: afdc b1bd b554 4a3d 3069 c53c 8672 7fbe
00000350: 1949 39bf 8d51 a03e 2235 563e 0efb ef3e
00000360: f2dc 613e 35c5 f03e 4bfe 9fbf 842b cabc
00000370: b6de 2d3f a8ca 04bf 7879 213f 89ae e73d
00000380: a4ee 8dbf ad86 e2bd 1ffa bebe b2b2 973e
00000390: 3ae5 7a3e a6e5 37bf 50f4 463f 4191 643d
000003a0: ca91 543e 9255 3cbe d723 343d 48ae b2be
000003b0: 1982 303d 831c 52bf e773 853e b2ad 253e
000003c0: 6077 d6b7 3327 b1bd 25c9 0b3f cdc4 9e3f
000003d0: 4a39 293f ca74 4a3f 75bd ab3e 8ad9 483f
000003e0: 0049 83bf b6f7 863f 0f85 133f a36d ec3d
000003f0: e1cb 083f 14d6 35bf 6062 cdbf 39f8 58be

bias f4 [8]
0.6265968 0.09041739 -0.50124156 -0.5911377 0.43518826 -0.5714356 -0.3925122 0.60209525
00000000: a668 203f c12c b93d 5e51 00bf cd54 17bf
00000010: ffd0 de3e 9a49 12bf 5cf7 c8be ea22 1a3f

weight f4 [1, 8]
-0.6690211 1.2512734 0.99799746 0.68119466 -0.9703175 0.50882703 0.6098989 0.5243695
00000000: f844 2bbf ba29 a03f c37c 7f3f c662 2e3f
00000010: ba66 78bf 7d42 023f 5622 1c3f 143d 063f
